handwritten.model (torch, 250396 bytes, 10 tensors)

LeNet.0.weight f4 [6, 1, 5, 5]
0.7476251 0.5907426 0.72459435 1.0894097 1.4256623 -0.3659248 -0.7215006 -0.6837351
-0.10028434 1.0639278 -0.6495301 -1.106775 -1.5495157 -0.6941139 0.79065937 -0.75783056
-0.86128366 -1.2436154 -0.54987204 0.5576228 -0.5321417 -0.5641652 -0.36315474 -0.05076407
0.9870177 -0.93296427 -0.4388552 0.28485498 0.27343944 0.20463075 -0.49817652 0.5825125
1.1943834 1.4946218 1.1839852 -0.5122268 0.6483866 1.4521129 1.1723291 0.8961048
-0.25456613 0.5057056 0.3056846 0.08210664 0.23400182 -1.1590685 -0.7613122 -0.91633695
-0.961122 -0.76362956 0.82423574 0.8163821 1.0826256 1.162816 0.20168084 0.7551714
1.2501147 1.6599162 1.4608599 0.4438291 0.050306275 1.0866065 1.5178332 0.60223025
-0.48692048 -0.1786728 0.13111877 0.34332258 -0.3061087 -1.1068909 -1.0359286 -0.8956247
-1.2135314 -1.4253453 -1.3057431 -0.77979875 0.18004562 0.37918925 0.995436 0.31445998
0.77096015 1.3265241 1.553668 1.8641328 1.080126 0.59416413 1.5247023 1.6244078
1.353679 0.5503007 -0.1282258 1.2208798 1.1951795 0.8031291 -0.5520395 -0.7130189
0.39020336 -0.31666246 -1.082576 -1.9376206 0.7498767 0.87855494 1.482782 1.24941
1.4880248 1.5327916 1.03405 0.8138221 0.85427225 1.4253654 1.510817 0.011350874
-0.60304487 -0.49627128 0.035297044 -0.07564086 -1.3070909 -1.4173628 -1.7422147 -1.5499209
-0.72880566 -1.3096796 -1.2760183 -1.2141447 -1.094501 0.917775 0.7829682 0.67441386
0.639066 0.83843946 0.7601919 0.06299091 -0.768028 -0.6725803 -0.2981592 0.4690421
-0.8310648 -1.2693712 -1.0129632 -0.73918784 0.6079069 -0.40367687 -1.3217924 -1.1167376
-0.57786286 0.82479256 -0.023364952 -0.4550387 0.010379699 0.19266663
00000000: 5c64 3f3f e83a 173f 047f 393f c771 8b3f
00000010: 1a7c b63f 7f5a bbbe 43b4 38bf 4309 2fbf
00000020: e061 cdbd c92e 883f 9b47 26bf ceaa 8dbf
00000030: 8856 c6bf 73b1 31bf a768 4a3f 2f01 42bf
00000040: 167d 5cbf ca2e 9fbf 6ac4 0cbf 5ec0 0e3f
00000050: 703a 08bf 216d 10bf 6bef b9be fced 4fbd
00000060: 31ad 7c3f bfd6 6ebf a1b1 e0be 83d8 913e
00000070: 4100 8c3e b98a 513e fe10 ffbe 8a1f 153f
00000080: 8ee1 983f c44f bf3f d48c 973f 4c21 03bf
00000090: aafc 253f d6de b93f e10e 963f 2067 653f
000000a0: 7e56 82be ec75 013f b182 9c3e 8727 a83d
000000b0: 2c9e 6f3e 5b5c 94bf 5be5 42bf 0f95 6abf
000000c0: 170c 76bf 3a7d 43bf 1d01 533f 6bfe 503f
000000d0: 7a93 8a3f 28d7 943f 6c85 4e3e ea52 413f
000000e0: c203 a03f 2278 d43f 75fd ba3f 913d e33e
000000f0: f40d 4e3d ec15 8b3f 5c48 c23f c32b 1a3f
00000100: a44d f9be 01f6 36be 0044 063e fac7 af3e
00000110: 48ba 9cbe 9aae 8dbf 4f99 84bf a947 65bf
00000120: ff54 9bbf b771 b6bf 9722 a7bf e4a0 47bf
00000130: e15d 383e 1825 c23e e5d4 7e3f e600 a13e
00000140: a55d 453f 8bcb a93f 98de c63f e79b ee3f
00000150: 9241 8a3f 241b 183f 7229 c33f 98ec cf3f
00000160: 5a45 ad3f 82e0 0c3f a04d 03be ca45 9c3f
00000170: a4fb 983f de99 4d3f 7652 0dbf 6888 36bf
00000180: bcc8 c73e 9521 a2be da91 8abf f403 f8bf
00000190: ebf7 3f3f fae8 603f cdcb bd3f abec 9f3f
000001a0: 9977 be3f 8432 c43f c05b 843f a556 503f
000001b0: 96b1 5a3f 6072 b63f 7462 c13f 04f9 393c
000001c0: 2661 1abf 4517 febe a293 103d 98e9 9abd
000001d0: c14e a7bf 256c b5bf e400 dfbf cf63 c6bf
000001e0: 0293 3abf 95a3 a7bf 9154 a3bf 1869 9bbf
000001f0: 9c18 8cbf 4df3 6a3f 9b70 483f 63a6 2c3f
00000200: d499 233f f8a3 563f f09b 423f 6101 813d
00000210: 7c9d 44bf 392e 2cbf 53a8 98be 4926 f03e
00000220: aac0 54bf c17a a2bf c7a8 81bf 6a3b 3dbf
00000230: c99f 1b3f bcae cebe 7e30 a9bf 42f1 8ebf
00000240: d2ee 13bf 9b25 533f db67 bfbc d5fa e8be
00000250: 9d0f 2a3c 674a 453e

LeNet.0.bias f4 [6]
0.81538177 -2.158951 -0.9254492 -1.7054107 -1.6549551 0.93998027
00000000: dcbc 503f 412c 0ac0 3dea 6cbf e64a dabf
00000010: 92d5 d3bf 8ca2 703f

LeNet.3.weight f4 [16, 6, 5, 5]
-0.10409298 -0.096985005 0.33134678 0.5080494 0.29922214 -0.19229808 -0.45711565 0.107775204
0.3801896 0.32764915 0.20204292 -0.46964645 -0.19984582 0.2820964 0.2761309 0.08916102
-0.4897637 -0.039222322 0.2781641 0.06238454 0.1408484 0.07826332 0.25559753 0.24953008
-0.1494822 -0.05122953 -0.29642624 -0.31501195 -0.2931358 -0.20488168 0.45456046 0.030567184
-0.5012434 -0.37251577 -0.3754104 0.32095137 0.3675572 -0.26227677 -0.26497173 -0.44191548
0.19823997 0.3880171 -0.29623887 -0.24534394 -0.20181459 0.13298576 -0.06564087 -0.29268098
-0.103164025 0.2446783 -0.16718204 -0.1973756 -0.2706755 -0.2298123 -0.18174015 0.20526011
0.3308696 -0.32623717 -0.30263668 -0.3116222 0.2178583 0.7262964 0.16168138 -0.3433329
-0.5318169 0.0037800216 0.7390521 0.27460963 -0.3034298 -0.46272105 -0.011232107 0.40515244
-0.03383579 -0.4210477 -0.015940847 -0.036856335 0.0046235956 -0.26721144 -0.29350558 -0.16892192
0.37788573 0.35194093 -0.16196091 -0.4160953 -0.33860478 0.40737867 0.64234877 0.06387145
-0.29595116 -0.45063192 0.24295631 0.698259 0.09046791 -0.117182076 -0.09603297 0.11221845
0.25323856 -0.30219832 0.0037566028 0.23573752 -0.4637548 -0.3204697 0.22537023 0.23619303
0.36733714 -0.4030655 -0.38067922 0.19657628 0.08058929 0.3150427 0.02865887 -0.08915125
0.3407825 -0.16354084 -0.14042248 -0.05558094 0.3749658 0.43326584 -0.15266263 -0.3067979
-0.029235218 0.38730788 0.17676067 -0.34607092 -0.14375842 0.0011332133 0.18204841 0.51340574
0.20488006 0.38881987 -0.2836629 -0.09043136 0.3851529 0.22368516 0.39987773 -0.1735967
-0.35664874 0.32189277 0.07547465 0.22029454 -0.22293204 -0.1446609 0.34533036 -0.002046155
-0.08185159 -0.08729439 0.13608778 0.21972185 -0.28636888 -0.21184283 -0.032271843 0.042153735
0.15830934 0.28715858 0.43350777 -0.2183246 0.14590065 -0.10254571 0.017680034 0.36279118
-0.15335685 -0.07808262 -0.3897823 0.25648057 0.48100156 -0.13204078 -0.2044736 -0.19706611
0.45415333 0.25856847 0.06459367 0.12350698 0.16430065 0.31457293 0.05741716 0.2809963
0.15629941 -0.09353942 -0.35155222 -0.14123836 0.1130592 0.048634645 0.06921523 -0.1738156
-0.0747245 0.060877617 0.19947505 0.35475555 -0.03938822 -0.4094136 0.28996435 0.551836
0.13005726 -0.34941673 -0.22758995 0.3315707 0.14332275 -0.18482265 -0.31097203 0.1876059
0.21846183 0.20399904 0.16803867 -0.16560243 -0.16336688 0.12972006 -0.18044065 -0.11067411
-0.32777843 -0.37047064 -0.0011350408 -0.11276776 0.06401067 -0.108114526 -0.5931601 0.22720452
0.23894918 0.32738042 -0.2705804 -0.82506907 0.26621437 0.12541232 -0.004087392 -0.51739115
-0.48086095 0.32908368 0.21969064 -0.1480401 -0.5285974 -0.28589317 0.07582243 -0.20609401
-0.42885005 -0.6913955 -0.65010643 -0.043434527 0.0036266965 -0.11917627 -0.50877064 -1.0394504
0.07718862 0.25863254 -0.04661509 -0.55151653 -0.7252971 0.099287145 0.064879835 -0.29630944
-0.37091756 -0.01325233 0.39377812 0.33186528 0.16375573 0.4557564 0.56196856 0.08820166
00000000: b32e d5bd 13a0 c6bd 49a6 a93e 870f 023f
00000010: a533 993e cae9 44be 100b eabe 3fb9 dc3d
00000020: 36a8 c23e a1c1 a73e 57e4 4e3e 8075 f0be
00000030: 62a4 4cbe f06e 903e 0861 8d3e 0e9a b63d
00000040: 4fc2 fabe 96a7 20bd 866b 8e3e ee86 7f3d
00000050: 903a 103e 8548 a03d aedd 823e d084 7f3e
00000060: dd11 19be 0ed6 51bd 2ec5 97be 3f49 a1be
00000070: e515 96be 81cc 51be 26bc e83e 0868 fa3c
00000080: 7d51 00bf 63ba bebe cb35 c0be bd53 a43e
00000090: 7530 bc3e 2449 86be 60aa 87be bf42 e2be
000000a0: 6bff 4a3e 2daa c63e 9fac 97be 713b 7bbe
000000b0: 7ca8 4ebe 6b2d 083e b86e 86bd 48da 95be
000000c0: a947 d3bd f38c 7a3e c531 2bbe d41c 4abe
000000d0: fb95 8abe ea53 6bbe 171a 3abe b52f 523e
000000e0: bd67 a93e 8f08 a7be 32f3 9abe f28c 9fbe
000000f0: 3f16 5f3e 90ee 393f ce8f 253e 54c9 afbe
00000100: 2725 08bf 3dba 773b 8532 3d3f a299 8c3e
00000110: 275b 9bbe c6e9 ecbe df06 38bc 2470 cf3e
00000120: 6697 0abd 9093 d7be 6196 82bc abf6 16bd
00000130: 8881 973b f0cf 88be 5d46 96be def9 2cbe
00000140: 3d7a c13e 9a31 b43e 15d9 25be 710a d5be
00000150: 9b5d adbe f093 d03e f870 243f 09cf 823d
00000160: e986 97be 3ab9 e6be 8ac9 783e 1ac1 323f
00000170: 3d47 b93d 28fd efbd efac c4bd c9d2 e53d
00000180: 7ca8 813e bdb9 9abe 5631 763b 2d65 713e
00000190: 4571 edbe 9b14 a4be 74c7 663e 96dc 713e
000001a0: 9d13 bc3e 9a5e cebe 63e8 c2be 4b4b 493e
000001b0: ff0b a53d 474d a13e 02c6 ea3c ee94 b6bd
000001c0: 0b7b ae3e 4077 27be e9ca 0fbe d7a8 63bd
000001d0: 84fb bf3e 05d5 dd3e 9853 1cbe 9d14 9dbe
000001e0: b27e efbc 384d c63e c000 353e 3530 b1be
000001f0: 6835 13be 5488 943a e66a 3a3e 8f6e 033f
00000200: 14cc 513e 6613 c73e 433c 91be 1434 b9bd
00000210: c332 c53e b90d 653e c6bc cc3e 55c3 31be
00000220: aa9a b6be 21cf a43e 7492 9a3d e494 613e
00000230: 4c48 64be fd21 14be 24cf b03e c918 06bb
00000240: cea1 a7bd 67c7 b2bd 985a 0b3e c4fe 603e
00000250: f19e 92be 54ed 58be 7b2f 04bd 65a9 2c3d
00000260: d81b 223e 7306 933e bbf4 dd3e 7c90 5fbe
00000270: fb66 153e 7c03 d2bd b8d5 903c c4bf b93e
00000280: 9409 1dbe c8e9 9fbd 8c91 c7be 6c51 833e
00000290: d645 f63e b335 07be 8761 51be b3cb 49be
000002a0: c986 e83e 1663 843e b049 843d 3af1 fc3d
000002b0: 6e3e 283e b40f a13e 422e 6b3d bfde 8f3e
000002c0: f40c 203e 9891 bfbd a7fe b3be caa0 10be
000002d0: 958b e73d 1f35 473d b7c0 8d3d b7fc 31be
000002e0: 2909 99bd cf5a 793d 3043 4c3e 85a2 b53e
000002f0: 8b55 21bd a99e d1be 3576 943e 2045 0d3f
00000300: bb2d 053e c0e6 b2be 570d 69be a3c3 a93e
00000310: 33c3 123e 2642 3dbe ba37 9fbe c31b 403e
00000320: 75b4 5f3e 20e5 503e 5412 2c3e af93 29be
00000330: a649 27be 56d5 043e 6fc5 38be 1ca9 e2bd
00000340: 93d2 a7be 54ae bdbe a6c5 94ba c9f2 e6bd
00000350: 0718 833d 266b ddbd 57d9 17bf 4da8 683e
00000360: 18af 743e 689e a73e 8489 8abe ba37 53bf
00000370: 404d 883e 166c 003e 87ef 85bb bf73 04bf
00000380: 6833 f6be a87d a83e 95f6 603e d397 17be
00000390: 2952 07bf 9760 92be ca48 9b3d 4f0a 53be
000003a0: 3c92 dbbe 4cff 30bf 606d 26bf 67e8 31bd
000003b0: dfad 6d3b b012 f4bd cb3e 02bf b60c 85bf
000003c0: 1115 9e3d 7c6b 843e 77ef 3ebd 3030 0dbf
000003d0: 12ad 39bf 0f57 cb3d b8df 843d dfb5 97be
000003e0: e8e8 bdbe 4d20 59bc 499d c93e 3fea a93e
000003f0: 95af 273e e758 e93e 2cdd 0f3f 12a3 b43d

LeNet.3.bias f4 [16]
0.05082531 0.111654684 -0.08833216 -0.060060028 -0.11721244 -0.14467344 -0.14613625 -0.12595335
-0.095828705 -0.03983555 -0.07556255 -0.13715349 0.11716167 -0.018890534 -0.23533793 0.11217461
00000000: 332e 503d 36ab e43d 7ee7 b4bd 8101 76bd
00000010: 130d f0bd 4625 14be bea4 15be eaf9 00be
00000020: d741 c4bd 9a2a 23bd 8ac0 9abd f771 0cbe
00000030: 75f2 ef3d 52c0 9abc 6dfc 70be cdbb e53d

LeNet.7.weight f4 [120, 400]
-0.08906182 -0.0023775732 0.080579706 0.29526898 0.18062545 0.038378123 0.14778467 -0.055070512
0.15749422 0.049755853 0.04412498 0.044651426 0.10988005 -0.063638516 -0.034244705 -0.12959027
0.08550578 -0.0017051382 -0.19402134 0.034763806 0.12125683 -0.15758166 0.00028916416 0.052973755
-0.11277441 -0.059952386 0.2105832 0.22570765 0.22119105 0.11105797 0.2231798 0.35908666
0.25957558 0.045710113 0.05405798 0.0036482594 0.053541437 0.22802798 -0.1768364 -0.04981966
-0.04170683 0.07807531 -0.088990375 -0.13614053 0.021701 0.12757988 -0.23253489 0.050149985
-0.034293775 -0.029071989 -0.178727 -0.056110162 0.1415167 -0.014839221 -0.17155068 0.1466194
-0.110135436 -0.17364472 -0.027843196 0.23212484 0.20142238 -0.0014328597 -0.18520243 0.043958638
0.15539558 0.14175734 -0.027375443 0.0056662275 0.28636944 0.2378824 -0.0032543738 -0.09188537
0.06524243 -0.18052498 -0.08608689 0.011286221 -0.046760794 -0.14102136 0.06109638 0.059298083
0.04748446 -0.053075314 0.10124233 -0.14325228 -0.030490331 -0.055117182 0.0118433 0.14359103
0.029963246 -0.1166339 -0.03201154 -0.09229336 0.14673193 -0.1539572 -0.17815427 -0.14040475
-0.10770873 0.10981133 -0.023850966 0.107654005 0.019602038 0.13750196 0.23259647 0.28742924
-0.030863523 -0.102937706 -0.19516948 -0.108214535 0.2324977 0.21010685 -0.1316931 -0.289451
-0.24637331 0.07355423 0.1073938 -0.014654709 -0.20544578 -0.006515454 0.19057141 0.14731866
0.113703325 0.09986385 0.015559962 -0.18739273 -0.012323013 0.07736289 -0.008880391 -0.10075039
0.027716221 -0.071463086 0.091480374 -0.099170774 -0.086104855 0.06907788 0.08770092 -0.025636096
0.08961969 -0.0954061 0.001133691 -0.09012791 -0.05454028 0.06610151 0.19668259 -0.17497809
0.049820963 -0.11358664 0.21879232 -0.0008741741 -0.079309866 0.033354737 0.037527397 0.1831155
0.34410208 0.20697096 -0.11158207 0.09509554 0.20106727 -0.07232097 -0.16645473 -0.12315834
0.0044063395 0.12941816 -0.137346 -0.21369515 0.025393292 0.034070138 0.09571191 -0.16967548
-0.06456872 0.23864631 0.09360451 0.22172138 0.18555278 0.15610011 -0.107840076 0.033782713
0.1557888 0.042411394 -0.053874217 -0.14109513 0.16661023 0.062742606 -0.2894398 0.081694916
0.12984632 -0.12885977 -0.04174529 -0.28567418 -0.1563217 0.16303852 0.05663523 -0.039948147
-0.0040175817 0.17927346 0.11414614 -0.028502373 0.065246336 0.33438376 0.18685131 -0.05921708
0.06591386 0.35799253 0.57656485 0.22883542 -0.05400481 -0.023945648 0.14596985 0.10648137
0.10676515 0.06777957 0.115679905 -0.3636055 -0.15359148 -0.13529937 -0.026968542 0.22398467
-0.25253046 -0.33197382 0.057982244 0.08711493 0.22779174 -0.11694366 0.050748266 -0.18430878
-0.05209079 0.039947648 0.03717585 0.20619096 0.22215141 0.04715924 -0.036056757 -0.08288159
0.08240113 0.21315898 0.33057085 0.039536323 -0.17090651 -0.1994773 0.30419293 0.039269257
0.033183068 -0.14780511 -0.025169421 0.059798006 0.16774656 0.007141745 0.08515893 0.1464212
-0.18915954 0.03696601 0.010011481 -0.15742567 -0.14474343 -0.16761778 0.0128571605 -0.0688198
00000000: 0b66 b6bd 0fd1 1bbb f906 a53d 7f2d 973e
00000010: e1f5 383e 6132 1d3d dd54 173e 9e91 61bd
00000020: 2a46 213e cbcc 4b3d 65bc 343d 6ae4 363d
00000030: cb08 e13d e954 82bd 2d44 0cbd 50b3 04be
00000040: a81d af3d f27e dfba 88ad 46be 7e64 0e3d
00000050: 8055 f83d 165d 21be f59a 9739 02fb 583d
00000060: 45f6 e6bd a290 75bd 1fa3 573e e81f 673e
00000070: e87f 623e 5c72 e33d 3f89 643e 35da b73e
00000080: 17e7 843e 873a 3b3d e76b 5d3d a317 6f3b
00000090: 444e 5b3d 2b80 693e 9a14 35be b30f 4cbd
000000a0: c8d4 2abd f3e5 9f3d 9640 b6bd 6c68 0bbe
000000b0: 4cc6 b13c 4da4 023e a01d 6ebe 126a 4d3d
000000c0: a177 0cbd 6128 eebc 3604 37be c5d3 65bd
000000d0: c1e9 103e 3420 73bc fbaa 2fbe 6523 163e
000000e0: b08e e1bd eccf 31be 6a17 e4bc 22b2 6d3e
000000f0: ab41 4e3e cbce bbba b5a5 3dbe f90d 343d
00000100: 0520 1f3e d628 113e 7742 e0bc c3ab b93b
00000110: 049f 923e 7297 733e 5547 55bb 662e bcbd
00000120: d39d 853d 8adb 38be 534e b0bd d8e9 383c
00000130: 3f88 3fbd e767 10be 3340 7a3d 8ce2 723d
00000140: 117f 423d 8065 59bd 2458 cf3d bab0 12be
00000150: dcc6 f9bc 8ec2 61bd 670a 423c 8709 133e
00000160: 7b75 f53c c1dd eebd 881e 03bd 4d04 bdbd
00000170: e540 163e f5a6 1dbe 136e 36be 43c6 0fbe
00000180: 6596 dcbd c3e4 e03d 1a63 c3bc b479 dc3d
00000190: 7494 a03c 50cd 0c3e c52d 6e3e ed29 933e
000001a0: 80d5 fcbc 01d1 d2bd 82da 47be 959f ddbd
000001b0: e113 6e3e 4026 573e 8eda 06be ec32 94be
000001c0: 4949 7cbe 9aa3 963d 48f1 db3d 4e1a 70bc
000001d0: 6160 52be 977f d5bb 2725 433e b4da 163e
000001e0: 4add e83d 6b85 cc3d 36ef 7e3c e1e3 3fbe
000001f0: 76e6 49bc 6f70 9e3d 0f7f 11bc 3856 cebd
00000200: 210d e33c 3d5b 92bd 105a bb3d 0c1a cbbd
00000210: be57 b0bd b478 8d3d 8a9c b33d ca02 d2bc
00000220: 878a b73d 4664 c3bd 5c98 943a fb94 b8bd
00000230: a165 5fbd 3a60 873d 2967 493e 752d 33be
00000240: 1111 4c3d 1da0 e8bd 180b 603e d528 65ba
00000250: 366d a2bd fa9e 083d 54b6 193d a182 3b3e
00000260: 262e b03e 32f0 533e 2485 e4bd 73c1 c23d
00000270: 94e4 4d3e 041d 94bd 1c73 2abe 713a fcbd
00000280: 0e63 903b 3286 043e 6ea4 0cbe e7d2 5abe
00000290: 9805 d03c 218d 0b3d 9b04 c43d 69bf 2dbe
000002a0: 9b3c 84bd b35f 743e b9b3 bf3d ee0a 633e
000002b0: 8c01 3e3e b5d8 1f3e 42db dcbd be5f 0a3d
000002c0: 1987 1f3e 92b7 2d3d 36ab 5cbd 3e7b 10be
000002d0: df9b 2a3e 327f 803d 7431 94be aa4f a73d
000002e0: 6ff6 043e d1f3 03be 1cfd 2abd e343 92be
000002f0: cc12 20be 92f3 263e 58fa 673d aba0 23bd
00000300: eba5 83bb 7693 373e 74c5 e93d cf7d e9bc
00000310: df9f 853d 5934 ab3e f355 3f3e 9c8d 72bd
00000320: d9fd 863d cc4a b73e c199 133f d553 6a3e
00000330: 2634 5dbd aa29 c4bc 1f79 153e e812 da3d
00000340: b0a7 da3d 04d0 8a3d 96e9 ec3d 802a babe
00000350: 1647 1dbe eb8b 0abe 22ed dcbc 3d5c 653e
00000360: ac4b 81be 79f8 a9be ca7e 6d3d 5069 b23d
00000370: 3d42 693e 2880 efbd 6add 4f3d 71bb 3cbe
00000380: 275d 55bd 25a0 233d b445 183d b923 533e
00000390: a97b 633e 0c2a 413d 40b0 13bd d3bd a9bd
000003a0: ecc1 a83d 5946 5a3e 9540 a93e d7f0 213d
000003b0: 1e02 2fbe c743 4cbe 2dbf 9b3e cdd8 203d
000003c0: f8ea 073d 395a 17be 1a30 cebc c1ee 743d
000003d0: c1c5 2b3e 4d05 ea3b ce67 ae3d 70ef 153e
000003e0: 0ab3 41be ac69 173d 3207 243c 3234 21be
000003f0: 9f37 14be ffa3 2bbe d7a6 523c 65f1 8cbd

LeNet.7.bias f4 [120]
0.046948727 0.04183332 -0.06718587 -0.03455762 -0.029083628 0.0740822 -0.053898107 -0.025028896
-0.057584852 0.03732208 0.05345679 -0.07067828 -0.041380942 -0.05870689 -0.067768425 -0.10235914
0.0032943662 0.035717618 -0.056965247 -0.063273735 -0.113071814 0.08488829 -0.00583848 0.013354765
-0.011994377 -0.028485348 0.024967732 0.011518528 -0.004137144 -0.031493105 -0.108867586 0.01954679
0.06894009 -0.03880528 0.08254925 -0.04355445 -0.050727084 -0.04772261 -0.03621803 -0.046096005
0.014705293 -0.04805977 -0.012822651 -0.035536535 -0.019951772 -0.052762102 -0.06869609 -0.11819716
-0.09493218 -0.065925844 0.09043434 -0.00026055457 -0.032751303 -0.022914652 -0.013498458 -0.010025483
-0.02472419 -0.09767276 -0.11365183 -0.061221253 6.121089e-05 -0.019301005 -0.09522633 -0.030711126
-0.019758003 -0.032501932 0.0049330024 -0.079674184 -0.053368542 -0.0133415265 -0.01727724 -0.006688143
-0.106636345 -0.047432177 0.09301961 -0.11128663 -0.055691756 -0.040684693 -0.017918365 -0.0046519097
0.017001607 -0.0218719 -0.07870287 -0.07316016 -0.007325863 -0.07900662 0.047809772 0.05201569
0.0335712 -0.025463022 0.0067889644 0.012812308 -0.015044898 0.05185712 -0.0023906569 -0.040758364
-0.027143968 0.006324136 0.092482924 -0.07219034 -0.05433437 0.013718407 -0.035886396 -0.015825275
-0.093507946 -0.060019173 -0.07534652 -0.0630805 -0.0305468 0.028378643 -0.11127995 -0.07650673
-0.028544746 -0.040279772 -0.08254476 -0.07832762 0.034326043 -0.036537632 -0.036638528 -0.03292211
00000000: 4f4d 403d 6a59 2b3d bf98 89bd 4a8c 0dbd
00000010: ca40 eebc 69b8 973d 43c4 5cbd 6609 cdbc
00000020: 18de 6bbd 0adf 183d 82f5 5a3d c6bf 90bd
00000030: 107f 29bd a376 70bd 2cca 8abd aba1 d1bd
00000040: 4be6 573b a34c 123d 6454 69bd a995 81bd
00000050: 3292 e7bd e9d9 ad3d b850 bfbb f2cd 5a3c
00000060: 1084 44bc 1b5a e9bc 2189 cc3c 35b8 3c3c
00000070: e190 87bb eafe 00bd f8f5 debd 9720 a03c
00000080: 7630 8d3d 49f2 1ebd 950f a93d 2766 32bd
00000090: 34c7 4fbd c978 43bd 5b59 14bd 2acf 3cbd
000000a0: 78ee 703c 52da 44bd 1916 52bc c28e 11bd
000000b0: e671 a3bc 131d 58bd 89b0 8cbd 5a11 f2bd
000000c0: ce6b c2bd 2104 87bd a435 b93d 0b9b 88b9
000000d0: 3b26 06bd 82b7 bbbc a328 5dbc ec41 24bc
000000e0: 628a cabc a808 c8bd 4ac2 e8bd 23c3 7abd
000000f0: 595e 8038 241d 9ebc 0606 c3bd e695 fbbc
00000100: 89db a1bc bf20 05bd 06a5 a13b 382c a3bd
00000110: f998 5abd 6b96 5abc 0089 8dbc 3628 dbbb
00000120: 2864 dabd 3e48 42bd 1181 be3d 3fea e3bd
00000130: 0a1d 64bd fea4 26bd 89c9 92bc 0c6f 98bb
00000140: f446 8b3c b32c b3bc f82e a1bd fed4 95bd
00000150: cb0d f0bb 39ce a1bd 2ed4 433d 670e 553d
00000160: f481 093d d497 d0bc f675 de3b b7ea 513c
00000170: e07e 76bc 2268 543d 91ac 1cbb 3ef2 26bd
00000180: 075d debc b33a cf3b b067 bd3d 87d8 93bd
00000190: b78d 5ebd 2bc3 603c 9dfd 12bd 02a4 81bc
000001a0: 1881 bfbd aad6 75bd 474f 9abd 5930 81bd
000001b0: 483d fabc 547a e83c bee6 e3bd 8faf 9cbd
000001c0: acd6 e9bc 67fc 24bd 3a0d a9bd 3b6a a0bd
000001d0: 7799 0c3d 7ca8 15bd 4812 16bd 56d9 06bd

LeNet.9.weight f4 [84, 120]
-0.43585953 -0.1746722 -0.14660855 -0.16242763 0.036358885 -0.07572519 -0.057665057 -0.28146747
0.25469223 0.277868 -0.28307375 -0.08066175 -0.045671497 0.015773172 -0.046421777 -0.13082598
0.15392642 0.036552712 0.0666679 -0.008343438 -0.124665745 -0.24455537 -0.107578926 0.0792327
0.13190897 0.32251173 -0.15472049 -0.17874034 -0.29777923 -0.27055666 -0.08975079 -0.18532924
0.010307542 -0.07436597 0.06394588 -0.14176518 0.3345169 -0.12067844 -0.030003697 -0.05360475
-0.029735805 0.06600372 -0.16092502 -0.051838875 0.048469234 -0.03449609 -0.06673731 0.06568234
-0.05131099 -0.021171877 0.05094706 -0.12181967 0.120959714 -0.19827844 -0.082634635 0.009976452
-0.22121425 -0.047365945 -0.15245706 -0.15543242 -0.12071656 -0.008896631 0.18661483 -0.0376991
-0.10393595 -0.09645278 -0.028346715 0.09560286 -0.094911665 -0.14953166 -0.08557808 -0.049274668
0.3499581 0.05871921 0.10052835 -0.052611735 0.21769156 -0.06384829 0.16214615 0.038312424
0.035934288 -0.123135984 -0.047309693 0.010747653 0.29783234 0.045845214 0.009696035 0.00979254
0.035171058 -0.08753685 0.12493398 -0.24741356 0.20886648 -0.13909163 0.07827212 0.09428888
0.06609282 -0.25125778 0.08054881 0.047705363 -0.14692983 -0.18140014 -0.007682395 0.1085228
0.06314688 -0.18108891 -0.07600034 -0.005511233 0.076079294 0.14947239 -0.017606897 -0.034362275
-0.32804927 0.2704639 0.06194474 -0.09903592 0.23766688 0.3370686 -0.07375444 0.0643334
0.21019088 -0.14224766 0.017120788 0.33801934 0.13870187 -0.22175752 -0.2392928 0.5294533
-0.102000184 -0.41221106 0.16902626 0.26885334 -0.17242725 -0.081657596 0.108820096 -0.10350428
-0.21187654 -0.04752617 0.16650565 -0.04935945 0.25770807 -0.09179546 0.130098 0.042537507
-0.6122665 -0.1843882 -0.012834666 -0.27436727 0.19537283 0.08251221 -0.098004565 -0.08139056
-0.03536798 -0.098868474 -0.3350203 -0.00321136 -0.4372982 0.018184822 0.46073008 0.435686
-0.0062259804 0.26130036 0.3208487 -0.25138852 0.09556637 -0.14778551 -0.0756612 -0.23624954
0.20126767 0.16051692 -0.53830546 0.312682 0.067717195 0.33263698 -0.11167581 -0.31508392
0.24649699 0.19618268 0.06014862 0.021528155 0.020913592 0.07403173 0.08276015 0.035726577
-0.18014836 0.39590415 -0.01773226 0.037958525 0.0053214394 0.18135892 -0.30757138 -0.07415964
0.086641714 0.6117132 -0.37111983 -0.06083468 -0.13200432 0.13718046 -0.19786078 0.063598745
-0.19687821 0.2627457 0.04249889 0.66594523 -0.54109186 -0.120636836 -0.21328005 0.07887124
-0.23510827 0.09341826 -0.2241775 -0.15481567 -0.07841408 0.06842612 0.10417971 0.13835244
0.17441292 0.105841845 -0.27779168 0.09152423 0.3487706 0.25885063 0.18372957 0.21144514
0.118829176 0.07451034 0.17047928 0.15977432 -0.1570344 -0.72378874 0.016892247 0.47142127
0.13708729 -0.3479315 0.41511378 0.1034125 -0.65650165 -0.18027134 0.042785715 0.1596367
0.19487113 0.12623948 0.16143006 0.37162316 0.2977657 0.2452979 0.3508545 -0.34095436
-0.23543383 -0.3309162 -0.1127898 0.26677942 -0.036439482 0.10339418 0.10504048 0.21984674
00000000: fb28 dfbe 45dd 32be 8d20 16be 6e53 26be
00000010: 0eed 143d cf15 9bbd 3232 6cbd 811c 90be
00000020: 0567 823e b744 8e3e 0bef 90be fd31 a5bd
00000030: 0912 3bbd bd36 813c c324 3ebd 3ff7 05be
00000040: e39e 1d3e 4cb8 153d 2e89 883d eab2 08bc
00000050: c150 ffbd b96c 7abe 5752 dcbd c144 a23d
00000060: 2513 073e 4220 a53e 0c6f 1ebe b507 37be
00000070: 8576 98be 6786 8abe 43cf b7bd f3c6 3dbe
00000080: f7e0 283c 304d 98bd 0ff6 823d e42a 11be
00000090: cd45 ab3e 4226 f7bd 50ca f5bc a890 5bbd
000000a0: 8198 f3bc f52c 873d 87c9 24be 0055 54bd
000000b0: ad87 463d c64b 0dbd 92ad 88bd 7684 863d
000000c0: 792b 52bd a570 adbc ddad 503d 977c f9bd
000000d0: bab9 f73d 8109 4bbe 593c a9bd 4674 233c
000000e0: fd85 62be cb02 42bd b41d 1cbe ad29 1fbe
000000f0: 3e3a f7bd 2dc3 11bc f517 3f3e 5f6a 1abd
00000100: 5fdc d4bd 0989 c5bd 5f37 e8bc 6fcb c33d
00000110: 0c61 c2bd d41e 19be 8f43 afbd 3cd4 49bd
00000120: b52d b33e 8e83 703d cfe1 cd3d 677f 57bd
00000130: 89ea 5e3e e4c2 82bd a409 263e 7ded 1c3d
00000140: d52f 133d b82e fcbd cfc7 41bd ed16 303c
00000150: 7b7d 983e 31c8 3b3d 1edc 1e3c e470 203c
00000160: 870f 103d 8546 b3bd 63dd ff3d fb59 7dbe
00000170: 18e1 553e 096e 0ebe 224d a03d 871a c13d
00000180: ac5b 873d dca4 80be c6f6 a43d b366 433d
00000190: c674 16be f5c0 39be 9abc fbbb 3441 de3d
000001a0: 2753 813d 5f6f 39be 11a6 9bbd 9397 b4bb
000001b0: 76cf 9b3d 4a0f 193e 573c 90bc 75bf 0cbd
000001c0: 13f6 a7be 3f7a 8a3e c5b9 7d3d 58d3 cabd
000001d0: f25e 733e 4194 ac3e 910c 97bd 3bc1 833d
000001e0: 473c 573e 5fa9 11be e540 8c3c df10 ad3e
000001f0: dd07 0e3e 6714 63be 2c09 75be 408a 073f
00000200: 79e5 d0bd 540d d3be 3815 2d3e 25a7 893e
00000210: c590 30be 193c a7bd 12dd de3d 0dfa d3bd
00000220: 2af6 58be cdaa 42bd 7580 2a3e 222d 4abd
00000230: 50f2 833e 42ff bbbd 6938 053e cf3b 2e3d
00000240: 7fbd 1cbf 43d0 3cbe 7e48 52bc de79 8cbe
00000250: d10f 483e 29fc a83d 9eb6 c8bd 18b0 a6bd
00000260: 04de 10bd 8e7b cabd c887 abbe ae75 52bb
00000270: 8de5 dfbe 56f8 943c d0e4 eb3e 3c12 df3e
00000280: 4f03 ccbb 29c9 853e 4846 a43e ffb5 80be
00000290: 4db8 c33d 1655 17be 42f4 9abd 66eb 71be
000002a0: 1d19 4e3e 8c5e 243e 63ce 09bf db17 a03e
000002b0: 50af 8a3d 654f aa3e 49b6 e4bd ae52 a1be
000002c0: b569 7c3e 1de4 483e 665e 763d d05b b03c
000002d0: fb52 ab3c f39d 973d 277e a93d 0856 123d
000002e0: d078 38be f3b3 ca3e 3f43 91bc 667a 1b3d
000002f0: 785f ae3b 27b6 393e ff79 9dbe 02e1 97bd
00000300: 3671 b13d 3c99 1c3f 6b03 bebe c92d 79bd
00000310: 242c 07be 0979 0c3e 049c 4abe 0f40 823d
00000320: 719a 49be 9b86 863e 5113 2e3d 637b 2a3f
00000330: ff84 0abf 7210 f7bd 1666 5abe 3f87 a13d
00000340: 39c0 70be 1352 bf3d c98e 65be 0088 1ebe
00000350: 9097 a0bd fe22 8c3d 2c5c d53d 43ac 0d3e
00000360: 4d99 323e 9cc3 d83d b63a 8ebe 0e71 bb3d
00000370: 0f92 b23e 1288 843e 9b23 3c3e 1385 583e
00000380: b65c f33d e198 983d 1f92 2e3e e19b 233e
00000390: a0cd 20be 384a 39bf 9c61 8a3c 215e f13e
000003a0: 9c60 0c3e 1424 b2be cb89 d43e efc9 d33d
000003b0: 7e10 28bf 0d99 38be 1340 2f3d ce77 233e
000003c0: 4c8c 473e ec44 013e ec4d 253e 6445 be3e
000003d0: bf74 983e 5f2f 7b3e 33a3 b33e 9291 aebe
000003e0: 9115 71be d96d a9be 57fe e6bd 5097 883e
000003f0: 9141 15bd 54c0 d33d 771f d73d 811f 613e

LeNet.9.bias f4 [84]
0.15943944 -0.111946896 -0.057208773 0.17673653 -0.007627903 -0.07000001 0.061030786 -0.005399099
0.1654263 0.09924845 0.06420551 0.13883017 0.024548773 0.0677459 -0.059235003 -0.057392575
0.041635472 0.12611884 0.046670757 0.074971475 -0.062469285 -0.025760373 0.17793263 0.10394366
0.058787 0.14502434 0.070718296 0.080589056 0.013355195 -0.030836273 0.066249005 0.17514959
0.24162361 -0.041472312 0.00965715 0.148206 0.024947114 0.04176334 0.08332612 0.05748691
-0.08210562 0.30576172 0.1938502 0.046289366 0.022736022 -0.013797104 0.024508595 0.12035981
0.10810416 0.070387386 0.06859335 0.098894574 0.046390496 0.15590544 0.15689157 0.09588904
-0.07411552 0.010066162 0.10195863 0.046817668 0.057986494 0.041143075 -0.027235292 0.044331335
0.20297714 0.046719167 -0.115288354 0.25111595 0.06649208 -0.033626303 0.1413897 0.056702126
0.22986646 -0.01751392 -0.05170843 0.12362946 0.12812373 0.016363258 0.00022148747 0.0015158552
0.04661759 0.02491157 0.02371094 -0.003632458
00000000: 1844 233e 6a44 e5bd bf53 6abd 6cfa 343e
00000010: 7df3 f9bb 2a5c 8fbd 6bfb 793d edea b0bb
00000020: 8365 293e c542 cb3d 2e7e 833d 7f29 0e3e
00000030: 821a c93c 5dbe 8a3d 67a0 72bd 7a14 6bbd
00000040: f589 2a3d 4c25 013e d629 3f3d a58a 993d
00000050: cbdf 7fbd 6b07 d3bc f933 363e 6ae0 d43d
00000060: a3ca 703d 4381 143e c1d4 903d e00b a53d
00000070: bfcf 5a3c 5a9c fcbc 8fad 873d 6a5a 333e
00000080: 2e6c 773e dfde 29bd 0639 1e3c 50c3 173e
00000090: e45d cc3c 0910 2b3d e3a6 aa3d 6577 6b3d
000000a0: fe26 a8bd cd8c 9c3e ab80 463e eb99 3d3d
000000b0: e540 ba3c 400d 62bc 40c6 c83c 347f f63d
000000c0: b765 dd3d 4327 903d ac7a 8c3d 3d89 ca3d
000000d0: f603 3e3d ada5 1f3e 2fa8 203e 7961 c43d
000000e0: e1c9 97bd 8bec 243c b0cf d03d e2c3 3f3d
000000f0: 3f83 6d3d a485 283d 8c1c dfbc c694 353d
00000100: 3dd9 4f3e 995c 3f3d 4d1c ecbd 4592 803e
00000110: 002d 883d bcbb 09bd 76c8 103e 7d40 683d
00000120: 1d62 6b3e 5a79 8fbc 38cc 53bd 7131 fd3d
00000130: de32 033e 3d0c 863c 173f 6839 a9af c63a
00000140: 16f2 3e3d 5913 cc3c 723d c23c 880e 6ebb

LeNet.11.weight f4 [10, 84]
-0.24065626 2.576704 2.1974905 -0.4212774 -0.26326984 -0.18597734 -0.09826709 -0.16288719
-0.09292672 0.7229129 -0.7861488 -1.0737053 -1.082644 -0.21205626 -0.21681438 0.7001403
-0.6802371 -1.0533087 -0.2414661 -0.33697888 -0.03523447 0.063766696 -0.12117933 -0.22617723
0.38304195 -0.48878396 -0.4277416 -0.16880086 -0.6954258 -0.009326255 -0.53616893 -0.5453418
-0.49674 -0.5834038 -0.80082464 -0.37431797 -0.34207156 -0.15682022 -0.6634764 -0.3939177
0.58740276 -0.36057296 -0.15744561 -0.15579207 -0.7579428 -0.30974507 -0.47131285 -0.18585542
-0.09529537 -0.48172027 -0.26674587 -0.46227574 -0.80458957 -0.9554003 -0.46086878 -0.10133114
-0.38240805 -0.22632568 -0.5665802 -0.14844388 -0.26387298 -0.27782214 -0.04976217 -0.18868417
-0.5540839 -1.0618838 0.8065004 -0.37562132 -0.50613886 0.6810646 -0.78792906 -0.06744755
-0.20332466 -0.15017805 -0.0811134 -0.15709548 -0.51226467 -0.17179999 -1.5031489 0.10284867
-0.40494403 -0.4920588 2.7242706 -0.61196536 0.8364857 -0.7368523 -0.99925977 0.94547147
0.1329715 -0.28805953 0.11202159 0.14457949 0.8203445 -0.108656384 0.76724255 0.5577002
0.030869363 -0.0014172711 -0.10083006 -0.6689732 0.14168133 0.20939189 0.6215167 0.37842202
-0.45857203 -0.40020305 0.8931471 0.7964662 -0.24699746 0.6460457 1.1252627 0.2583724
-0.814656 -1.0454404 0.55151856 0.62947387 1.7553779 0.5395646 0.263722 0.54716384
-0.25526226 0.27780324 0.97593266 0.13137776 -0.4935628 1.6312723 1.0687988 -0.04940771
0.8970587 -0.4284372 0.6206925 0.77675205 0.77800864 0.7347092 0.87390596 0.27900788
0.6964864 0.77997446 0.982167 0.14903659 -0.078945614 0.050196704 1.093011 0.082692884
-0.2229433 0.59961504 -0.24182549 -0.882835 0.5112428 -0.006358273 -1.2842883 1.0645002
-0.9446913 -0.14234543 -0.053896468 0.8993054 0.2968967 0.39261627 -0.4278023 0.684496
0.22093667 0.24811965 0.37703612 -0.9804843 0.12013545 -0.2421878 -0.61532164 0.051750075
-0.23720372 0.23875687 0.8863061 -0.67760265 0.4721197 0.64863604 0.6409273 -0.106395185
-0.29930955 -0.34221628 0.49627793 0.0437748 -0.088822864 -0.40625888 0.9755889 -0.933128
-0.9620115 -1.4290814 0.05940877 -1.0043008 -0.15748997 1.9784496 -0.20124963 -0.06256995
-0.9047625 -0.3276988 0.89803827 0.4036511 -0.1680223 0.40363252 -0.46443272 -0.19352964
0.13834007 1.3267486 -0.8061814 0.9117996 0.18685073 0.07758629 1.005828 -0.015776113
0.04324634 -0.35359028 -0.5827123 -0.8144908 0.7669348 -1.5625623 0.88930297 -0.14162883
0.12900223 0.14874397 0.8851315 -0.3645634 1.2780098 0.6354943 0.7534544 -0.84666055
0.85437584 -0.10058417 -0.6627576 1.7909021 -1.2742276 0.03840514 -0.7931763 -1.6854166
-0.6115384 -1.3602203 -0.64625317 -0.7245016 0.5527367 0.86103964 -0.0324855 -0.2850544
-0.2688977 -0.3859454 -0.67408663 0.39836738 -0.37275204 0.48292166 0.5312986 -1.4729277
1.3932539 1.2682953 -1.0469598 -0.2979359 -0.6652051 0.28300327 -1.477604 -0.07166066
00000000: 986e 76be b8e8 2440 afa3 0c40 acb1 d7be
00000010: 4ecb 86be d870 3ebe 4240 c9bd e6cb 26be
00000020: 5d50 bebd d210 393f 0c41 49bf 2d6f 89bf
00000030: 1494 8abf 4725 59be 9704 5ebe 653c 333f
00000040: 0524 2ebf d2d2 86bf e442 77be 7f88 acbe
00000050: 0552 10bd 1d98 823d de2c f8bd 019b 67be
00000060: 131e c43e e441 fabe f200 dbbe 22da 2cbe
00000070: 6d07 32bf 26cd 18bc 5e42 09bf 859b 0bbf
00000080: b554 febe f459 15bf d802 4dbf 9ba6 bfbe
00000090: 0124 afbe 7b95 20be 97d9 29bf 95af c9be
000000a0: 0760 163f 059d b8be 6c39 21be f587 1fbe
000000b0: 8a08 42bf e896 9ebe eb4f f1be e250 3ebe
000000c0: 382a c3bd 0aa4 f6be ea92 88be 68af ecbe
000000d0: 95f9 4dbf 1d95 74bf fef6 ebbe b386 cfbd
000000e0: fdca c3be ebc1 67be 660b 11bf ac01 18be
000000f0: 5c1a 87be b43e 8ebe 6bd3 4bbd 6c36 41be
00000100: 71d8 0dbf cfeb 87bf cf76 4e3f 7051 c0be
00000110: 5192 01bf 405a 2e3f b8b5 49bf f121 8abd
00000120: 5734 50be 46c8 19be c81e a6bd a3dd 20be
00000130: c723 03bf 56ec 2fbe 2f67 c0bf 53a2 d23d
00000140: d354 cfbe 22ef fbbe 735a 2e40 c3a9 1cbf
00000150: ed23 563f 5aa2 3cbf 7dcf 7fbf 6b0a 723f
00000160: ae29 083e 8a7c 93be 936b e53d a50c 143e
00000170: 1902 523f 3d87 debd 026a 443f 71c5 0e3f
00000180: bfe1 fc3c bac3 b9ba fe7f cebd d441 2bbf
00000190: e914 113e d46a 563e b81b 1f3f 88c0 c13e
000001a0: f4c9 eabe 6ae7 ccbe 4aa5 643f 35e5 4b3f
000001b0: e7ec 7cbe 4063 253f 9c08 903f 6349 843e
000001c0: 4c8d 50bf fed0 85bf 5230 0d3f 3325 213f
000001d0: 39b0 e03f e820 0a3f 9206 873e ee12 0c3f
000001e0: bcb1 82be 3a3c 8e3e b9d6 793f e487 063e
000001f0: 43b4 fcbe 88cd d03f 66ce 883f bd5f 4abd
00000200: a4a5 653f 1f5c dbbe b4e5 1e3f 39d9 463f
00000210: 932b 473f e715 3c3f 4db8 5f3f 1fda 8e3e
00000220: ef4c 323f 68ac 473f 4c6f 7b3f 0c9d 183e
00000230: 3dae a1bd 0f9b 4d3d c9e7 8b3f e35a a93d
00000240: 404b 64be 5f80 193f 1aa1 77be 7901 62bf
00000250: cfe0 023f 0f59 d0bb 8f63 a4bf 8b41 883f
00000260: 4ad7 71bf 00c3 11be 8bc2 5cbd e138 663f
00000270: d802 983e 0005 c93e e708 dbbe 213b 2f3f
00000280: 393d 623e 1413 7e3e e10a c13e 0501 7bbf
00000290: 9309 f63d 1400 78be b885 1dbf e3f7 533d
000002a0: 88e5 72be ae7c 743e f5e4 623f 5e77 2dbf
000002b0: acb9 f13e 030d 263f d013 243f b8e5 d9bd
000002c0: 1a3f 99be f936 afbe 2418 fe3e 344d 333d
000002d0: c3e8 b5bd 2a01 d0be 32c0 793f 7ae1 6ebf
000002e0: 6346 76bf 24ec b6bf 9c56 733d ee8c 80bf
000002f0: 0d45 21be d63d fd3f 6214 4ebe ad24 80bd
00000300: 849e 67bf 23c8 a7be d6e5 653f 5bab ce3e
00000310: 0a0e 2cbe eca8 ce3e 20ca edbe a22c 46be
00000320: 05a9 0d3e e6d2 a93f e761 4ebf b36b 693f
00000330: cc55 3f3e 90e5 9e3d f9be 803f e83c 81bc
00000340: 1323 313d c909 b5be a22c 15bf 7882 50bf
00000350: d755 443f 0b02 c8bf 5ca9 633f 2607 11be
00000360: 2919 043e 5750 183e fa97 623f 0ea8 babe
00000370: d395 a33f c1af 223f 63e2 403f bfbe 58bf
00000380: 60b8 5a3f 13ff cdbd 7baa 29bf 483c e53f
00000390: e419 a3bf b54e 1d3d 9a0d 4bbf bbbb d7bf
000003a0: c88d 1cbf b31b aebf d970 25bf f078 39bf
000003b0: 2780 0d3f 186d 5c3f 840f 05bd a6f2 91be
000003c0: f6ac 89be a39a c5be f190 2cbf cff6 cb3e
000003d0: 5bd9 bebe 8241 f73e 2f03 083f e588 bcbf
000003e0: 2556 b23f 8057 a23f c702 86bf 0e8b 98be
000003f0: e24a 2abf cee5 903e 2122 bdbf d3c2 92bd

LeNet.11.bias f4 [10]
5.0427623 -4.391298 0.50147766 0.16955383 -0.557558 0.43805462 0.7852503 -1.4303507
0.06027637 -0.5430816
00000000: 4f5e a140 8385 8cc0 d760 003f 859f 2d3e
00000010: 1fbc 0ebf b248 e03e 2a06 493f bb15 b7bf
00000020: 5be4 763d 6507 0bbf
